vit.pt (torch, 681166 bytes, 142 tensors)

embedding.cls_token f4 [1, 1, 48]
0	0x3ed4c73c	0.41558254
1	0x3f734b17	0.95036453
2	0xbf275b1a	-0.65373385
3	0xbfb76344	-1.4327168
4	0xbf0cd566	-0.5501312
5	0xbf9dfc22	-1.234257
6	0x3f72a2ac	0.9477947
7	0x3e754414	0.23951751
8	0xbeea7f21	-0.45800117
9	0xc0064bac	-2.0983686
10	0xbe30d35a	-0.17268124
11	0xbe386fee	-0.18011448
12	0xbebc266a	-0.36748058
13	0x3f145aa9	0.57950836
14	0xbbea0320	-0.007141486
15	0x3fd1a438	1.637824
16	0xbf27cdda	-0.6554848
17	0xbf07f47c	-0.5310743
18	0xc008cbfb	-2.13745
19	0xc01a4cd0	-2.4109383
20	0xbf062e3b	-0.5241429
21	0x3eb27056	0.3485133
22	0xbf7a2be6	-0.97723234
23	0xbe0e7d83	-0.13915066
24	0x3e62da6d	0.22153635
25	0x3e14f0b8	0.14544952
26	0xbca957a8	-0.02067168
27	0x3f072d1a	0.52803195
28	0x3ef9a5db	0.4875935
29	0x3f9daa7a	1.231765
30	0xbd89c77d	-0.067275025
31	0xbedb6116	-0.42847508
32	0x3f84a2e4	1.036221
33	0x3ed390bf	0.4132137
34	0xbc59436d	-0.013260704
35	0x3e806c6f	0.25082728
36	0x3ea059a5	0.31318393
37	0x3b66ed58	0.0035236683
38	0x3f421e88	0.75827837
39	0xbf1dd456	-0.61652124
40	0x3ec6714b	0.3875831
41	0x3f0297a0	0.5101261
42	0xbf828407	-1.0196542
43	0x3f68187e	0.9066237
44	0x3e1a260b	0.15053575
45	0x3f39abaf	0.72527593
46	0x3ea97d00	0.3310318
47	0x3eb42bdf	0.3518972

embedding.position_embeddings f4 [1, 197, 48]
0	0x3fd57bf9	1.6678458
1	0x3eaab67a	0.33342344
2	0xbd5af739	-0.053458426
3	0xbe69323b	-0.22773068
4	0xbf1d3b90	-0.6141901
5	0xbe0eb240	-0.13935184
6	0xbf842b28	-1.032567
7	0x3eb71cef	0.35764262
8	0x3e5cd201	0.21564485
9	0xbfa1231d	-1.2588841
10	0x3e9bd12c	0.30433023
11	0xbea88c04	-0.32919323
12	0xbe925584	-0.28580868
13	0xbf275961	-0.65370756
14	0x3fdb5da3	1.7137951
15	0x3f64c7db	0.89367455
16	0xbf3341bc	-0.7002218
17	0xbfe7a2d4	-1.8096566
18	0xc004b526	-2.0735564
19	0xbda906cf	-0.08253252
20	0xbc703dd2	-0.014663177
21	0x3f3cf214	0.7380688
22	0xbfbf74fe	-1.4957578
23	0xbfe18c9d	-1.7621037
24	0x3e46ebc8	0.19425881
25	0x3e03a7a8	0.12856925
26	0x3fc4a850	1.5363865
27	0xbe637dd2	-0.22215965
28	0x3fb6df98	1.4286985
29	0xbf204b23	-0.6261465
30	0x3f3fce16	0.7492384
31	0xbed0ba98	-0.4076736
32	0x400445b1	2.0667536
33	0xbe0be1ce	-0.13660356
34	0x3f1077cd	0.564328
35	0x3d14370c	0.03618531
36	0x3f264c72	0.64960396
37	0xbec1230a	-0.37722045
38	0xbe54a909	-0.20767607
39	0x3f923f44	1.1425557
40	0x3f4c626f	0.798377
41	0xbed80a41	-0.42195323
42	0x3ee9037a	0.45510465
43	0x3e68d0c8	0.22735894
44	0x3fb1433d	1.3848644
45	0xbf2c79e0	-0.67373466
46	0x3ed0b23d	0.40760985
47	0x3f9fc907	1.2483224
48	0xbfb6827f	-1.4258574
49	0xc01c0aca	-2.4381585
50	0xbf1ad521	-0.6048146
51	0x3f9cc9b0	1.224905
52	0xbf4109e1	-0.754057
53	0xbf51f32a	-0.82011664
54	0x3f83af72	1.0287917
55	0x3fc63306	1.5484321
56	0xbf0cf210	-0.5505686
57	0xbe8b2004	-0.27172863
58	0x40439b6d	3.0563614
59	0x3ed46bf3	0.4148861
60	0x405200ac	3.281291
61	0xbef67a59	-0.4814022
62	0x3e453eb2	0.19262198
63	0xbfaba73a	-1.3410408
64	0xbe9dfea6	-0.30858344
65	0x3f553d82	0.8329698
66	0xbf8f4a40	-1.1194534
67	0xbf1e6876	-0.61878145
68	0x3fa5f794	1.296618
69	0x4081da6a	4.057912
70	0xbfdece04	-1.7406621
71	0x3eb09aeb	0.34493193
72	0x3e472dc2	0.19451049
73	0xc0493c6e	-3.1443133
74	0xc03b5d43	-2.9275672
75	0x3f6cac7d	0.92450696
76	0xbe966dd3	-0.29380664
77	0x404c2ad4	3.190114
78	0x3fbfe727	1.4992417
79	0xc0314e83	-2.770417
80	0xc01294f3	-2.2903411
81	0xc020b294	-2.5108995
82	0xbf5d61bc	-0.86477256
83	0x404e4dc4	3.2234964
84	0x3f0ec9eb	0.5577685
85	0xc000f2f6	-2.0148292
86	0xbf1e580b	-0.6185309
87	0x3f8b155a	1.0865891
88	0xbf3dee55	-0.7419179
89	0x400fa504	2.2444468
90	0xbfcc10cb	-1.5942625
91	0xbeec622f	-0.46168658
92	0x3f891481	1.0709382
93	0x3f9777ee	1.1833475
94	0x3f093309	0.535935
95	0x3eaa05dc	0.33207595
96	0xbde31b33	-0.11089172
97	0xbf7b2c6e	-0.9811467
98	0xbfc56b6f	-1.5423411
99	0xbfa4f147	-1.2886132
100	0xc00f87e2	-2.2426686
101	0xbea1e303	-0.3161851
102	0xbece2ac5	-0.40267006
103	0x401dc408	2.4650898
104	0x3f1ad728	0.6048455
105	0x3eff8867	0.49908754
106	0x402c414c	2.6914854
107	0x3efbb83e	0.49164003
108	0x3f2e3c02	0.68060315
109	0xbcbcca60	-0.023045719
110	0x4013bb29	2.3082983
111	0x3f43a4c1	0.7642327
112	0xc03cea49	-2.9517996
113	0xbda82b06	-0.08211331
114	0xc0087ef1	-2.132748
115	0x3eb53525	0.3539211
116	0x3f8a3c82	1.0799716
117	0x400788a2	2.1177144
118	0xc0373d27	-2.8631074
119	0x3f9e9222	1.2388346
120	0xbfe9670c	-1.8234572
121	0xbff31b24	-1.8992658
122	0xbfdf42ac	-1.7442222
123	0x3fb93a59	1.4470931
124	0x3f9412d5	1.1568247
125	0x3f721280	0.9455948
126	0xbefcfe3a	-0.4941271
127	0x3e16b6ae	0.14718124
128	0x3f58f8c0	0.8475456
129	0xbffe3999	-1.9861327
130	0x3f7a6c69	0.9782167
131	0x3f5ceec0	0.86301804
132	0x401e4f5e	2.4735942
133	0xc016e566	-2.3577514
134	0x3f45b4f7	0.77229255
135	0x400ebdd0	2.2303352
136	0x3eb7e66d	0.35917988
137	0x402600c2	2.5937963
138	0xc041a899	-3.0259154
139	0xbe797453	-0.2436078
140	0xbecfc8a4	-0.40582764
141	0x3fa120da	1.258815
142	0x3ecbf424	0.39834702
143	0xbfb0cb71	-1.3812085
144	0x40056c6a	2.084742
145	0x3e7b0a28	0.24515593
146	0xbf8b36f7	-1.0876149
147	0x3f201bef	0.62542623
148	0xc05adc41	-3.4196932
149	0x3f51cfa1	0.8195744
150	0xbf919522	-1.1373637
151	0x40663ed8	3.5975857
152	0x3f902e7a	1.1264184
153	0xbf84745f	-1.0348014
154	0x3f2420a0	0.6411228
155	0x3c64a811	0.013956086
156	0x3ff55148	1.916543
157	0xbff3ad60	-1.9037285
158	0x40157c9a	2.33573
159	0x3fef4e3f	1.8695754
160	0xbee61129	-0.44934967
161	0x3f0a722f	0.5408048
162	0xc0305df9	-2.7557356
163	0x3ee2cbe8	0.44296193
164	0x402b4ba8	2.6764927
165	0x4090e18a	4.5275316
166	0xbf87e113	-1.0615562
167	0x4003fffa	2.0624986
168	0x3fd2fd43	1.6483539
169	0xc069ef06	-3.6552138
170	0xc0189b8a	-2.3844934
171	0x4002d499	2.044226
172	0x4071907c	3.7744436
173	0x3f05149b	0.51984566
174	0xc0094ca3	-2.1453025
175	0xbf1a3ba0	-0.6024723
176	0x3ec93a3e	0.39302248
177	0xc06e28fd	-3.7212517
178	0x401e7a71	2.4762232
179	0xbf41ec2a	-0.7575098
180	0x4020c4e3	2.512017
181	0xbfab99af	-1.3406276
182	0x3f21ea1c	0.6324785
183	0x406d56ec	3.7084303
184	0x3f85debf	1.0458602
185	0x40750522	3.8284383
186	0xbfefd434	-1.8736634
187	0xbe61b493	-0.2204154
188	0xc05f4d5e	-3.489097
189	0x40235c16	2.5524955
190	0xbf478add	-0.77946264
191	0xbfdfcb3d	-1.7483898
192	0x401c3d2d	2.4412339
193	0x3fb7401c	1.431644
194	0xbeb4b5c3	-0.35294923
195	0xbfb5d9ce	-1.4207094
196	0xc0934de6	-4.603259
197	0xc04062f7	-3.0060403
198	0xbfe9c14c	-1.8262115
199	0x407eda29	3.9820654
200	0x3f61b993	0.8817379
201	0xc02542e4	-2.5822077
202	0x3cf3983c	0.029735677
203	0x3f11e5be	0.56991184
204	0x405b38eb	3.425349
205	0xbe905f21	-0.28197578
206	0x3faa3cd5	1.3299814
207	0x3ed38330	0.41311026
208	0xc01035b8	-2.2532787
209	0x3f152f2a	0.5827509
210	0xc03d6ba8	-2.9596958
211	0xbf622aab	-0.88346356
212	0x3fae1ba4	1.3602185
213	0x40831532	4.0963373
214	0xc00d1e41	-2.2049716
215	0x4077e272	3.8731961
216	0x3e9b38d2	0.30316788
217	0xc079a07c	-3.9004202
218	0xc066c18c	-3.6055632
219	0x4013443d	2.30104
220	0x406a9307	3.6652238
221	0xbe906d8d	-0.2820858
222	0xc012a316	-2.291204
223	0xbfc47d1d	-1.5350682
224	0x402878e1	2.6323779
225	0xc008b42a	-2.1359963
226	0x400dce76	2.2157264
227	0xbf53242c	-0.8247707
228	0x402e3f80	2.7226257
229	0xbfb75052	-1.4321387
230	0x3ee86f73	0.4539753
231	0x40618f38	3.5243664
232	0x3ef6010e	0.4804768
233	0x40825c54	4.0737705
234	0xc0945d8c	-4.6364193
235	0xbf388bc6	-0.7208828
236	0xbeb45856	-0.35223645
237	0x407a5024	3.9111414
238	0x3ff69ea1	1.926716
239	0xbff1eb7f	-1.8899993
240	0xbdb4d3a7	-0.08829432
241	0x3f419d5e	0.7563075
242	0xbfd6b9f5	-1.67755
243	0xc0594659	-3.3949187
244	0xc02ade5b	-2.6698215
245	0xbea2b70f	-0.31780288
246	0xbf968660	-1.1759758
247	0x40965da9	4.698933
248	0x3fb6171c	1.4225802
249	0xc0163a41	-2.3473055
250	0x3f80d254	1.0064187
251	0x3fc25f08	1.5185251
252	0x405b4940	3.4263458
253	0x3ee72716	0.45147008
254	0x409173c1	4.54538
255	0x3ff7a8f7	1.9348439

embedding.patch_embeddings.projection.weight f4 [48, 3, 16, 16]
0	0xbebade7c	-0.36497867
1	0xbed6a96f	-0.41926143
2	0xbebe45ae	-0.37162536
3	0xbea95e48	-0.33079743
4	0xbe81ef00	-0.25377655
5	0xbe2a1f70	-0.16613555
6	0xbcc204fa	-0.023684014
7	0x3dcb1428	0.09915954
8	0x3e34f047	0.17669784
9	0x3e6b3b45	0.22971828
10	0x3e779eaa	0.2418162
11	0x3e564e28	0.20928252
12	0x3dbc54a5	0.09195832
13	0xbb6f2f16	-0.0036496571
14	0xbdb08282	-0.086186424
15	0xbe3f0b66	-0.18656692
16	0xbe92803b	-0.28613457
17	0xbe90d444	-0.28286946
18	0xbe956d41	-0.29184917
19	0xbe84265a	-0.2581051
20	0xbe4f2249	-0.20227922
21	0xbdd60745	-0.10450605
22	0x3d393775	0.045218904
23	0x3e18d4bc	0.14924902
24	0x3e6cbedc	0.23119682
25	0x3ea3589f	0.3190355
26	0x3e85bb13	0.2611929
27	0x3e3f753a	0.18697062
28	0x3d937cc4	0.072015315
29	0xbcdad83d	-0.026714439
30	0xbdd30a5d	-0.10304711
31	0xbe51fca8	-0.20506537
32	0xbe216518	-0.1576122
33	0xbe46b58d	-0.19405194
34	0xbe0cfc4d	-0.1376812
35	0xbe04ea05	-0.12979896
36	0xbd6326d5	-0.055456955
37	0xbc9ec5e0	-0.019381464
38	0x3def94ad	0.116982795
39	0x3e8eb07d	0.27869025
40	0x3eacfb95	0.33785692
41	0x3ec44bf9	0.38339213
42	0x3eadaea8	0.33922315
43	0x3e63bb77	0.22239481
44	0x3dfa1c02	0.12212373
45	0xbd153684	-0.036428943
46	0xbdc382d9	-0.095464416
47	0xbe2c5d53	-0.16832475
48	0xbd8f1997	-0.06987303
49	0xbdd10803	-0.10206606
50	0xbdb42f01	-0.08798028
51	0xbd6f3401	-0.058399204
52	0xbbea2f87	-0.007146779
53	0x3dc35732	0.095381156
54	0x3e8028a0	0.25030994
55	0x3eb86a75	0.3601872
56	0x3eda5e48	0.42650056
57	0x3ee82263	0.45338735
58	0x3ece5b18	0.40303874
59	0x3e8f71e6	0.28016585
60	0x3e073900	0.13205338
61	0x3cbcbfac	0.023040615
62	0xbdd253a4	-0.102698594
63	0xbe406434	-0.18788224
64	0x3d5b8c94	0.053600863
65	0x3c3a5aaa	0.011374155
66	0x3c87a688	0.0165589
67	0xbc98356e	-0.018580165
68	0x3c7c6068	0.015403844
69	0x3e008964	0.1255241
70	0x3e6fa855	0.23404057
71	0x3eba47b3	0.36382827
72	0x3edd8a15	0.4326941
73	0x3efcc75e	0.49370855
74	0x3edf1b2b	0.43575415
75	0x3ea30586	0.31840152
76	0x3e446f9d	0.19183202
77	0x3d80f792	0.0629722
78	0xbc026473	-0.007958519
79	0xbd1de6f7	-0.038550343
80	0x3dc4f8f8	0.096177995
81	0x3d25af0d	0.040450145
82	0x3d1c2ca9	0.03812853
83	0x3ca92ff1	0.020652743
84	0x3d9fbda8	0.07799846
85	0x3e1d71f3	0.153755
86	0x3e5b7401	0.2143097
87	0x3ea1f813	0.31634578
88	0x3ed6d6f3	0.41960868
89	0x3ed08bdd	0.40731707
90	0x3ec6f145	0.3885595
91	0x3e75caab	0.24003093
92	0x3e358026	0.17724666
93	0x3db7e4d9	0.08979196
94	0x3a1d4005	0.00059986144
95	0xbcb618da	-0.022228647
96	0x3dea59aa	0.11442883
97	0x3d9205e3	0.07130029
98	0x3dbeb5c5	0.093120135
99	0x3d660e9e	0.056166284
100	0x3dad1b6e	0.084524974
101	0x3e17de92	0.14830998
102	0x3e5bfab5	0.21482356
103	0x3e9d79fd	0.30757132
104	0x3eb22d4a	0.34800178
105	0x3eb8fa5c	0.3612851
106	0x3ea7a667	0.32744142
107	0x3e5802a5	0.21094759
108	0x3df45c55	0.119316734
109	0x3dc60014	0.09667984
110	0x3d06a67a	0.03287361
111	0xbcf99daa	-0.030470688
112	0x3e141337	0.14460455
113	0x3dc01ffa	0.09381099
114	0x3e19ec76	0.15031609
115	0x3dedcbc0	0.11611128
116	0x3e06bcb3	0.1315792
117	0x3e217d4f	0.15770458
118	0x3e417fb4	0.18896371
119	0x3e5b0721	0.21389438
120	0x3e7f537c	0.2493419
121	0x3e9eef2e	0.31041855
122	0x3e763490	0.24043489
123	0x3e1d6392	0.15370014
124	0x3dfd016e	0.12353788
125	0x3dca981e	0.09892295
126	0x3b51d9eb	0.0032020758
127	0xbcf93a4f	-0.030423312
128	0x3d85ad5f	0.065272085
129	0x3d632840	0.055458307
130	0x3e10a9f7	0.14127336
131	0x3e14f406	0.14546213
132	0x3e215b4a	0.1575748
133	0x3e240e48	0.16021073
134	0x3e086a5e	0.13321826
135	0x3e56a59e	0.20961615
136	0x3e6f785f	0.23385762
137	0x3e84043e	0.25784487
138	0x3e4816c0	0.19539928
139	0x3e387dc6	0.18016729
140	0x3e005a95	0.12534554
141	0x3d9e35f1	0.07725132
142	0xbcd8b34e	-0.026452687
143	0xbd735e59	-0.05941615
144	0x3c628c0e	0.013827337
145	0x3bb17584	0.0054156203
146	0x3da2d1ab	0.07950147
147	0x3e283bb1	0.1642902
148	0x3e3d297d	0.18472858
149	0x3e5bb5fb	0.21456139
150	0x3e45afcf	0.19305347
151	0x3e6567c1	0.2240286
152	0x3e5afd13	0.21385603
153	0x3e9526bd	0.29131117
154	0x3e86d52c	0.26334512
155	0x3e5651be	0.2092962
156	0x3e039396	0.12849268
157	0x3d9d0857	0.07667606
158	0xbd370fc3	-0.044692766
159	0xbe1087ef	-0.14114355
160	0xbcc120a9	-0.023575144
161	0xbd32ccb1	-0.04365224
162	0x3d24abed	0.040203024
163	0x3df191b7	0.11795371
164	0x3e4933a9	0.19648613
165	0x3e5e290c	0.21695346
166	0x3e502736	0.20327458
167	0x3e455cee	0.19273731
168	0x3e680d75	0.22661383
169	0x3e903906	0.28168505
170	0x3e6e310f	0.23260902
171	0x3e33f7b9	0.17574967
172	0x3da11904	0.078660995
173	0x3ba38a29	0.004990835
174	0xbde1117f	-0.10989665
175	0xbe2f7216	-0.17133364
176	0xbd958839	-0.07301373
177	0xbdb4b9b1	-0.0882448
178	0x3d60f162	0.0549177
179	0x3dda74e0	0.106668234
180	0x3e3123b8	0.17298782
181	0x3e5859c9	0.21128
182	0x3e7c801c	0.24658245
183	0x3e6a8be7	0.22904931
184	0x3e6b2bf3	0.22965984
185	0x3e686657	0.2269529
186	0x3e703c5d	0.23460527
187	0x3e133184	0.14374357
188	0x3d916fbb	0.07101389
189	0xbd81e903	-0.063432716
190	0xbdd25fab	-0.102721535
191	0xbe1aecec	-0.15129441
192	0xbe029f26	-0.12756023
193	0xbddde65e	-0.10834955
194	0x3d106de1	0.03526104
195	0x3dce869e	0.1008427
196	0x3e56653e	0.20937058
197	0x3e5a7c26	0.21336421
198	0x3e3d9c52	0.18516663
199	0x3e48ea88	0.19620717
200	0x3e3aceb1	0.18242909
201	0x3e64df80	0.22350883
202	0x3e40c28b	0.18824212
203	0x3dff42ad	0.12463889
204	0x3d50d987	0.0509887
205	0xbd675c49	-0.056484494
206	0xbd874d97	-0.06606596
207	0xbddedaaf	-0.10881554
208	0xbe0953c6	-0.13410863
209	0xbdc972aa	-0.098363236
210	0x3ba765f0	0.0051085874
211	0x3cab0d48	0.020880356
212	0x3df3d10a	0.119051054
213	0x3e1fb32d	0.15595694
214	0x3def81bd	0.116946675
215	0x3e129705	0.14315422
216	0x3e2c136f	0.16804288
217	0x3e42bb87	0.19016849
218	0x3e78e3f6	0.2430571
219	0x3e4c72bd	0.19965644
220	0x3e093b12	0.1340144
221	0x3d51f262	0.051256545
222	0xbbe2dc2e	-0.00692322
223	0xbd7131a2	-0.058885224
224	0xbe5a4b29	-0.21317734
225	0xbe38bde7	-0.18041192
226	0xbdd00ff2	-0.10159291
227	0xbc1b8cf6	-0.009494057
228	0x3d83f9ec	0.06444153
229	0x3dab01f6	0.083499834
230	0x3da4facb	0.080556475
231	0x3d8332fa	0.064062074
232	0x3e1cd439	0.15315332
233	0x3e381675	0.17977317
234	0x3e87a97d	0.26496497
235	0x3e82a9a2	0.25520045
236	0x3e57a0c4	0.21057421
237	0x3e1192b2	0.14216116
238	0x3dd00aee	0.10158335
239	0x3d138155	0.036012013
240	0xbe95c1ae	-0.29249328
241	0xbe84233a	-0.25808126
242	0xbe195a8b	-0.14975946
243	0xbce12410	-0.027483016
244	0xbb6b44f2	-0.003589925
245	0xbbd62cef	-0.006536118
246	0x3c9a1a47	0.018811358
247	0x3d8f90ed	0.07010064
248	0x3e09dddf	0.13463543
249	0x3e5c41ae	0.2150943
250	0x3e98666d	0.29765645
251	0x3e9e4062	0.30908495
252	0x3e8e8bfa	0.2784117
253	0x3e5fe459	0.21864451
254	0x3e036e3b	0.12835018
255	0x3d727d4f	0.059201535

embedding.patch_embeddings.projection.bias f4 [48]
0	0x3d2d11af	0.042253193
1	0x3e088c8c	0.13334864
2	0xbb540ca7	-0.0032356174
3	0x3e5559cc	0.20835036
4	0xbf10aee3	-0.56516856
5	0xbf2c9eef	-0.67430013
6	0xbee569e3	-0.44807348
7	0xbc731f05	-0.014838939
8	0xbdec1972	-0.11528291
9	0x3e834c4a	0.2564414
10	0x3e87a3ed	0.26492253
11	0xbf0a4a75	-0.5401986
12	0xbe39150a	-0.18074432
13	0xbed7b1bb	-0.42127785
14	0xbeaa4098	-0.33252406
15	0xbe5a1b5c	-0.212995
16	0x3e508c34	0.20365983
17	0x3ef5e767	0.48028108
18	0x3eb377fc	0.35052478
19	0xbe324938	-0.17410743
20	0x3edcbf67	0.43114778
21	0x3ef942ce	0.4868378
22	0x3f1a16be	0.6019095
23	0x3f25a236	0.6470064
24	0x3d3d6030	0.04623431
25	0xbec818f2	-0.39081532
26	0x3f0423af	0.5161695
27	0x3ec79a0c	0.38984716
28	0x3f066dea	0.52511466
29	0x3f1c0e8a	0.60959685
30	0xbd2ddcba	-0.04244683
31	0xbd8a7225	-0.067600526
32	0xbe76b383	-0.24091916
33	0xbdb6de20	-0.08929086
34	0x3db671e0	0.08908439
35	0x3eb2c94d	0.34919205
36	0xbddf6982	-0.10908796
37	0xbef1e810	-0.47247362
38	0xbf0dfc2e	-0.5546292
39	0x3d93f5d4	0.07224622
40	0xbd05aa13	-0.0326329
41	0xbe3e8517	-0.18605457
42	0xbebd63da	-0.36990243
43	0xbe69d00d	-0.22833271
44	0xbf09456f	-0.5362157
45	0xbdea2542	-0.114328876
46	0xbf158e77	-0.5842051
47	0xbe85e26b	-0.26149306

encoder.blocks.0.attention.heads.0.query.weight f4 [12, 48]
0	0x3c570c14	0.013125438
1	0xbc9d6d9b	-0.019217303
2	0xbdf307b4	-0.11866704
3	0xbd70d061	-0.058792476
4	0x3c0803ce	0.008301688
5	0x3aed0bdb	0.0018085198
6	0xbd0766c0	-0.033056974
7	0x3d15a7f5	0.03653713
8	0xbd042b2d	-0.032267738
9	0x3d9ccfc4	0.07656816
10	0x3e1eb3de	0.15498301
11	0x3dc35a43	0.095387004
12	0xbdab3d79	-0.08361334
13	0xbd98dcdf	-0.07464003
14	0xbdb11444	-0.086464435
15	0xbcc758ff	-0.024334429
16	0x3d17aee4	0.037032023
17	0xbdb783d8	-0.08960694
18	0xbd20128e	-0.039080195
19	0xbbc9f840	-0.006163627
20	0xbe10f8cb	-0.14157407
21	0xbd31ec52	-0.043438263
22	0xbd62eabb	-0.055399638
23	0xbd6e2aa2	-0.058146127
24	0x3d075d10	0.033047736
25	0xbdd700b7	-0.10498183
26	0x3d656e72	0.056013532
27	0x3e4ba410	0.19886804
28	0xbdd38535	-0.103281416
29	0xbe5c1cc6	-0.21495351
30	0x3dc701e9	0.09717161
31	0xbcde376d	-0.027126038
32	0x3d4ae78a	0.04953722
33	0x3d504c98	0.050854295
34	0x3cea3413	0.028589284
35	0x3e4d5978	0.20053661
36	0xbe701f2a	-0.23449388
37	0x3ca3feb7	0.020018918
38	0x3e497508	0.1967355
39	0xbe2c9cb8	-0.16856658
40	0x3ca2c467	0.019869043
41	0x3da63125	0.08114842
42	0x3d7be534	0.061497882
43	0xbc3a49f8	-0.011370175
44	0x3ad5b059	0.0016303166
45	0x3de16aef	0.11006724
46	0xbde1ab6f	-0.110190265
47	0xbcab45f4	-0.02090738
48	0x3dcb1541	0.09916163
49	0x3dbe13a0	0.09281087
50	0x3ddb7147	0.10714965
51	0xbc9adc16	-0.018903773
52	0xbad34e6e	-0.0016121396
53	0x3dc251e5	0.094882764
54	0xbcc5eef9	-0.024161803
55	0xbdb7fbbd	-0.08983562
56	0xbbc64c89	-0.006051604
57	0x3cd082e3	0.025453037
58	0xbdba0b1c	-0.0908415
59	0xbcad7c43	-0.021177417
60	0x3d434946	0.0476773
61	0xbd1145af	-0.035466846
62	0x3cd70397	0.026246829
63	0xbcba0da3	-0.02271158
64	0x3d02ae75	0.031904656
65	0xbda57ee0	-0.0808084
66	0xbd43ea37	-0.047830787
67	0xbd2f6b9d	-0.042827237
68	0xbdde762d	-0.10862384
69	0x3da2da4d	0.07951794
70	0xbbba6292	-0.00568802
71	0xbd6368d0	-0.05551988
72	0xb91fde28	-0.00015246181
73	0xbd9f285b	-0.07771369
74	0xbd45e138	-0.04831049
75	0xbdb5084a	-0.08839472
76	0xbd9cc736	-0.07655184
77	0xbdda4adf	-0.10658812
78	0x3cd34c90	0.025793344
79	0x3ddc058b	0.10743245
80	0x3c90cc51	0.01767555
81	0x3d9dd75e	0.07707094
82	0xbd687d90	-0.05676037
83	0x3daece00	0.08535385
84	0xbd8a1ba0	-0.0674355
85	0xbd0cd977	-0.034387078
86	0x3e0ab4db	0.13545553
87	0xbe08b288	-0.13349354
88	0x3d3a3ec6	0.04547002
89	0xbdf4acb9	-0.11947007
90	0xbd95e7b0	-0.073195815
91	0xbd7af244	-0.0612662
92	0x3d1d3495	0.038380224
93	0xbdc0b04d	-0.09408627
94	0xbe05a9bf	-0.13053034
95	0xbc97d08a	-0.018532056
96	0xbcc60caf	-0.02417597
97	0x3d07f297	0.033190336
98	0xbdece1cf	-0.11566507
99	0x3cd19fa1	0.025588812
100	0xbe0c0b8d	-0.13676281
101	0x3d3ca256	0.046053253
102	0xbe358abe	-0.17728707
103	0xbd7ebb87	-0.06219056
104	0xbd3d4711	-0.046210352
105	0x3d85b9ed	0.06529603
106	0x3e016e19	0.12639655
107	0xbed4380c	-0.4144901
108	0xbe510c03	-0.20414738
109	0xbd939205	-0.072055854
110	0x3c02080a	0.007936487
111	0x3d44ab6c	0.048015043
112	0x3d60044a	0.05469159
113	0xbc044387	-0.00807274
114	0x3db2cf74	0.08730975
115	0x3c250fe0	0.010074586
116	0xbd169cc0	-0.036770582
117	0x3d90caf9	0.07069964
118	0x3da65155	0.081209816
119	0x3e85f541	0.26163676
120	0xbd9be9af	-0.07612931
121	0x3e8d72eb	0.27626738
122	0x3dee923e	0.11648987
123	0x3e1b6cc2	0.15178207
124	0xbc06a44d	-0.008217883
125	0xbe62fe3d	-0.22167297
126	0xbe6e4810	-0.23269677
127	0xbe06abf3	-0.13151531
128	0xbccbf562	-0.024897281
129	0x3d895c8c	0.06707105
130	0x3e7fea01	0.24991609
131	0x3dfcf927	0.123522095
132	0x3eedcd4f	0.464457
133	0xbe762c9b	-0.24040453
134	0x3df127d4	0.11775175
135	0x3e5c917a	0.2153987
136	0x3dd80cf9	0.10549349
137	0xbf0515fb	-0.51986665
138	0xbe0b435b	-0.13599913
139	0xbc2f851c	-0.010712888
140	0x3e762612	0.2403796
141	0x3e0d4b27	0.137982
142	0x3e4ae4f2	0.19813898
143	0xbe3d316c	-0.18475884
144	0x3abc2eb5	0.0014357181
145	0xbd65aa52	-0.056070633
146	0x3e12a3ce	0.14320299
147	0xbd125d68	-0.03573361
148	0xbdbf4de2	-0.09341027
149	0xbd6e0241	-0.05810762
150	0x3c256ca1	0.0100967
151	0x3d167f28	0.03674236
152	0x3d556a0b	0.052103084
153	0xbddbfad9	-0.10741205
154	0xbe41b9b9	-0.18918504
155	0xbdd988d8	-0.10621804
156	0xbd5c419c	-0.053773507
157	0x3cc652e8	0.024209455
158	0xbc213604	-0.0098395385
159	0xbc7ff50f	-0.015622391
160	0xbd8d3468	-0.06894761
161	0xbd5b4bff	-0.053539272
162	0x3d4e5602	0.050374992
163	0x3dc1b3ac	0.09458098
164	0x3e317fc7	0.173339
165	0x3c3ab51b	0.011395718
166	0xbcc89624	-0.024485655
167	0x3e10b618	0.14131963
168	0xbe7c2dc8	-0.24626839
169	0xbb009836	-0.0019621975
170	0xbdaacada	-0.08339472
171	0xbe166277	-0.14685999
172	0x3d95798d	0.072985746
173	0xbcc72df6	-0.024313908
174	0xbc1c18b0	-0.00952737
175	0x3e04b3fb	0.12959282
176	0x3dfbfb32	0.12303771
177	0xbc299a6b	-0.0103517575
178	0xbd6ab9d0	-0.05730611
179	0xbd2f0fe2	-0.042739756
180	0x3e520674	0.20510274
181	0xbd75c41f	-0.06000149
182	0xbe2a2ee8	-0.16619456
183	0x3dad2d3b	0.08455893
184	0xbd014240	-0.03155732
185	0x3d3f31a3	0.046678197
186	0xbe214d04	-0.15752035
187	0x3d8c3a51	0.068470605
188	0x3d50e655	0.05100091
189	0xbe5c8125	-0.2153364
190	0xbc9371b7	-0.01799856
191	0x3c0a183b	0.008428629
192	0xbb54d21f	-0.0032473875
193	0xbd44f212	-0.04808242
194	0x3d00fc79	0.031490777
195	0x3b8f9ac9	0.0043824655
196	0xbd887edf	-0.06664824
197	0x3cb7edd4	0.022452272
198	0xbc1d1965	-0.009588574
199	0x3d6c1a9e	0.05764257
200	0xbe80b034	-0.25134432
201	0x3ab82596	0.0014049287
202	0x3d28c55b	0.041203838
203	0x3dbfafde	0.09359716
204	0x3e102f61	0.14080574
205	0xbd27d295	-0.04097231
206	0xbca5b299	-0.020226764
207	0x3d263fbd	0.04058813
208	0xbccec2b9	-0.025239335
209	0x3be55815	0.0069990256
210	0xbdad916c	-0.08475003
211	0xbbce6a86	-0.0062993197
212	0x3e03e0b4	0.12878686
213	0x3c4d886e	0.012544734
214	0x3d47c5cb	0.048772614
215	0x3da4e352	0.080511704
216	0xbda0c709	-0.07850463
217	0x3d892eb2	0.066983595
218	0x3c0c328e	0.008556975
219	0x3db6a0f9	0.08917422
220	0xbcd92daa	-0.026511032
221	0x3de75d6f	0.11297118
222	0x3b2fb61e	0.002681143
223	0x3db3cf09	0.08779723
224	0x3da2d4d7	0.07950752
225	0xbe67de6e	-0.22643444
226	0xbd1a4d42	-0.037671335
227	0x3d0baaef	0.03409856
228	0xbd1f2040	-0.038849115
229	0x3da9f542	0.08298732
230	0xbcfc1e1a	-0.030776072
231	0x3db3a906	0.08772473
232	0x3d824ac0	0.06361914
233	0x3d3b03b6	0.045657836
234	0xbd0b391d	-0.033990014
235	0xbd934ba5	-0.071921624
236	0xbd8c5c9d	-0.06853602
237	0x3d27d8f7	0.0409784
238	0x3d4c38fb	0.04985903
239	0x3d75afd8	0.05998215
240	0x3d502667	0.050817873
241	0xbb055bc8	-0.0020348895
242	0xbd56fba4	-0.052486077
243	0x3db88cce	0.09011231
244	0xbe2a89f2	-0.16654184
245	0x3ad6470c	0.0016348078
246	0x3e3f3393	0.18672018
247	0xbac5d720	-0.001509402
248	0x3d933cd1	0.07189334
249	0x3c7ca918	0.0154211745
250	0x3e42fba2	0.19041303
251	0xbc6f1c68	-0.014594175
252	0xbd885c6a	-0.066582516
253	0x3deaffa3	0.1147454
254	0x3c961b2f	0.018323509
255	0x3cb31419	0.02186017

encoder.blocks.0.attention.heads.0.query.bias f4 [12]
0	0xbce24515	-0.027620832
1	0xbd7a44c0	-0.06110072
2	0xbe82fb9f	-0.25582597
3	0xbe00f8b3	-0.12594871
4	0xbd275508	-0.040852576
5	0xbdc4360f	-0.09580623
6	0x3e935490	0.28775454
7	0xbd206923	-0.039162766
8	0x3ccdc2da	0.025117327
9	0xbcc054ac	-0.023477875
10	0xbdb1dab2	-0.08684291
11	0x3c14602e	0.009056134

encoder.blocks.0.attention.heads.0.key.weight f4 [12, 48]
0	0x3e46a1ae	0.19397613
1	0xbd1ccf8c	-0.03828387
2	0x3c78b115	0.015178938
3	0xbdfb40fa	-0.12268253
4	0x3c1dec42	0.009638848
5	0x3dded99e	0.10881351
6	0x3d8b7908	0.06810194
7	0xbdb956b8	-0.090497434
8	0xbc52a99c	-0.012857821
9	0xbd02965e	-0.031881683
10	0x3e3a2967	0.18179856
11	0xbd92d6d8	-0.071698844
12	0xbd4fb5a6	-0.050710343
13	0xbd2262e9	-0.03964511
14	0x3c1f1d76	0.009711614
15	0x3d701de4	0.058622256
16	0xbd810419	-0.0629961
17	0x3e12ad29	0.14323868
18	0xbe168e4a	-0.14702716
19	0x3d0df5cf	0.03465825
20	0xbcde0857	-0.027103586
21	0xbd82465e	-0.06361078
22	0xbd9aff37	-0.075682096
23	0x3d811f5c	0.063048095
24	0x3d82e561	0.06391407
25	0xbd0e6b64	-0.034770384
26	0x3d5f2894	0.054482058
27	0x3c50c7c1	0.012742938
28	0xbd994eca	-0.07485731
29	0xbe73262e	-0.23745033
30	0xbd7be5d8	-0.061498493
31	0x3d88f17e	0.06686686
32	0x3d4b5c52	0.04964859
33	0xbe0a99aa	-0.1353518
34	0x3d4cd82a	0.050010838
35	0x3c0aa250	0.00846155
36	0xbdaca408	-0.08429724
37	0xbde37ce2	-0.11107804
38	0x3c304428	0.010758437
39	0xbe1d96aa	-0.15389505
40	0x3d7353c6	0.059406064
41	0x3e0d76fe	0.13814923
42	0x3db418b8	0.08793777
43	0x3d538b30	0.05164641
44	0xbdd80e9d	-0.10549662
45	0x3cbf6c54	0.023367085
46	0xbdaced5e	-0.08443712
47	0x3d392d54	0.045209244
48	0x3e06044d	0.13087578
49	0x3d9c7393	0.076392315
50	0x3d253d21	0.0403415
51	0xbe40a1d9	-0.1881174
52	0xbe141b75	-0.14463599
53	0xbc366894	-0.011133332
54	0x3d8c93f0	0.06864154
55	0x3d1c5ec8	0.038176328
56	0x3d820b8a	0.06349857
57	0x3d94d825	0.07267789
58	0xbc91e9ca	-0.017811675
59	0xbd939246	-0.07205634
60	0x3cd87100	0.02642107
61	0xbdbfd93e	-0.093676075
62	0xbcd6db87	-0.026227726
63	0x3d9a8d4d	0.07546482
64	0xbd834dfc	-0.06411359
65	0xbdb2456c	-0.087046474
66	0xbc219f0a	-0.009864578
67	0x3d564964	0.052316085
68	0x3c9aaf33	0.01888237
69	0x3d6f4a6e	0.05842059
70	0x3de43a2c	0.11143908
71	0xbd26fffd	-0.040771473
72	0x3d95bf3e	0.07311867
73	0x3d07af9c	0.03312646
74	0x3cb52621	0.022112908
75	0x3d119526	0.03554263
76	0xbc056ec8	-0.008144088
77	0xbd2e1fa6	-0.04251065
78	0xbc6f3968	-0.014601089
79	0xbd168344	-0.03674628
80	0x3d4fbdfa	0.050718285
81	0x3d4eee8d	0.05052047
82	0x3acae496	0.0015479501
83	0x3d0ba03b	0.034088355
84	0x3d9ed53f	0.07755517
85	0x3d5e1dc9	0.054227624
86	0x3d9eb6e1	0.07749725
87	0xbc9e9515	-0.019358197
88	0x3d9bbfae	0.076049194
89	0x3c71f9a9	0.014768996
90	0x3dc49a38	0.095997274
91	0x3c47eeec	0.0122029595
92	0x3cfbf952	0.030758534
93	0xb9c6d040	-0.0003792066
94	0xbc8e1969	-0.0173461
95	0x3c1aa96a	0.0094398055
96	0xbe5d10a8	-0.21588385
97	0xbe3a7086	-0.18206987
98	0x3de8d1a8	0.11368114
99	0x3e3b5e61	0.18297721
100	0xbdfa634f	-0.12225973
101	0xbdb4c0f0	-0.088258624
102	0x3da4429c	0.08020517
103	0xbdfee5b9	-0.1244616
104	0xbe463cd5	-0.19359143
105	0xbd09c2af	-0.03363293
106	0xbd1c9862	-0.03823126
107	0xbdd1837c	-0.10230157
108	0xbe3e8946	-0.18607053
109	0xbdbf48fe	-0.09340094
110	0x3d808320	0.0627501
111	0xbd149cc5	-0.03628232
112	0xbd8e3437	-0.06943553
113	0x3d480089	0.048828635
114	0x3c9e2803	0.019306188
115	0xbcba25cf	-0.022723107
116	0x3e893631	0.26799157
117	0xbd7cf5a0	-0.061757684
118	0x3ed8a699	0.42314604
119	0x3be6c13c	0.0070420783
120	0x3dd459af	0.10368668
121	0x3ef5f664	0.48039544
122	0x3d8e1c7e	0.06939028
123	0xbd6343eb	-0.055484693
124	0xbdffff78	-0.12499899
125	0x3e81e5b4	0.25370562
126	0xbe18ddfc	-0.1492843
127	0x3d77ef65	0.06053104
128	0xbdbcdc11	-0.09221662
129	0x3e9c138a	0.30483657
130	0x3d8da3c5	0.06916002
131	0x3d3dad4f	0.046307858
132	0x3e557372	0.2084482
133	0x3e062ec2	0.13103774
134	0xbc96be8e	-0.01840141
135	0x3e34411a	0.1760296
136	0x3e14a409	0.145157
137	0xbe5e9574	-0.217367
138	0xba4cff58	-0.00078200316
139	0xbdf014df	-0.11722731
140	0x3ecb9296	0.39760274
141	0xbe78d75a	-0.243009
142	0xbe840544	-0.25785267
143	0xbc84150c	-0.016123317
144	0xbd92803d	-0.07153366
145	0x3dbc3c8c	0.09191236
146	0x3dcaaae9	0.0989588
147	0x3e1ca239	0.15296258
148	0x3de11371	0.10990036
149	0xbdbad1ee	-0.09122072
150	0xbd03ff88	-0.032226115
151	0x3cffd4ea	0.031229455
152	0xbd9258d1	-0.07145847
153	0xbda29d22	-0.07940127
154	0xbcd9f079	-0.026603924
155	0x3da02516	0.078195736
156	0x3c3ab6d9	0.011396133
157	0xbd481070	-0.0488438
158	0x3dc564f5	0.09638397
159	0x3df7ac25	0.12093381
160	0x3cbabd78	0.022795424
161	0xbd55abbf	-0.052165743
162	0xbb6ffe8d	-0.003662023
163	0xbc4a53a8	-0.012349047
164	0xbc271c30	-0.0101995915
165	0xbc8d5fe1	-0.017257633
166	0x3b8c3eec	0.004279962
167	0x3db01428	0.085975945
168	0xbd86d68e	-0.06583892
169	0x3e47eb33	0.19523315
170	0xbda85c77	-0.08220761
171	0xbe3baa06	-0.18326578
172	0x3c1ccd38	0.009570412
173	0x3c3ed88f	0.011648311
174	0xbce1756d	-0.027521813
175	0x3d8fadfa	0.07015605
176	0x3de4acd4	0.11165777
177	0x3dc523b9	0.09625954
178	0x3d5bca43	0.05365969
179	0xbab43c02	-0.0013750794
180	0xbb63d2d4	-0.0034763115
181	0x3e16c3ba	0.14723101
182	0xbb013fcb	-0.0019721861
183	0x3db8ca4a	0.090229586
184	0x3dcdb680	0.10044575
185	0xbc882bad	-0.016622389
186	0xbc57cb12	-0.013170974
187	0x3d0f6ec0	0.03501773
188	0x3da46226	0.08026533
189	0xbd8f8022	-0.07006861
190	0xbd012b4e	-0.03153544
191	0x3e122798	0.14272916
192	0x3d49dddb	0.049283843
193	0xbd0859ce	-0.03328877
194	0xbcc8206d	-0.024429524
195	0xbc240714	-0.010011453
196	0x3d29a647	0.04141834
197	0xbd4e4c91	-0.05036599
198	0xbe0952ed	-0.1341054
199	0xbd8bc454	-0.06824556
200	0x3dd4f106	0.10397534
201	0xbd605c59	-0.05477557
202	0x3bb4b5f4	0.0055148546
203	0xbc0d6458	-0.008629881
204	0x3d3aab14	0.04557331
205	0x3cfa0534	0.03052006
206	0x3dbb01f6	0.091312334
207	0x3c977d57	0.018492384
208	0xbd930f87	-0.07180696
209	0x3c5a7f2e	0.013335986
210	0xbe0b9d9e	-0.13634345
211	0xbcde6293	-0.027146613
212	0x3da0ae0d	0.078456976
213	0xbdb659d2	-0.089038506
214	0xbd9ddca0	-0.077080965
215	0x3c674639	0.0141158635
216	0x3c066fd3	0.008205372
217	0x3d6eb056	0.058273636
218	0xbd8f1cc9	-0.06987912
219	0xbb2ec181	-0.002666563
220	0x3c4da56e	0.012551649
221	0xbd6c52bd	-0.057696093
222	0x3d727c15	0.059200365
223	0xbd445745	-0.04793479
224	0xbc41693e	-0.011804877
225	0xbdb92cc1	-0.09041739
226	0xbe0715fd	-0.13191982
227	0x3bae5647	0.0053203437
228	0xbd3a62f0	-0.04550451
229	0x3d366da8	0.04453817
230	0xbd2bc467	-0.04193535
231	0xbc476ef6	-0.012172451
232	0xbde01393	-0.109412335
233	0xbc38ca03	-0.011278632
234	0xbdc3a2b9	-0.09552521
235	0xbd1e9ddc	-0.038724765
236	0x3db38993	0.087664746
237	0x3d218f84	0.039443508
238	0x3c28538a	0.0102738235
239	0x3d8a720d	0.06760035
240	0xbd0dee22	-0.03465093
241	0x3d1ba1cd	0.037996102
242	0xbd6a23e7	-0.057163145
243	0x3cf29618	0.029612586
244	0x3d807f95	0.06274334
245	0xbd3ebfa4	-0.04656948
246	0xbddfdc31	-0.1093067
247	0x3b718e75	0.0036858593
248	0xbd59bca4	-0.053158417
249	0x3d63822a	0.055544056
250	0xbd897f20	-0.067137
251	0x3e13bc8e	0.14427397
252	0xbc2cc4d3	-0.010544973
253	0x3dafa70a	0.08576782
254	0xbd2c9f76	-0.04214426
255	0x3d5e3e7f	0.05425882

encoder.blocks.0.attention.heads.0.key.bias f4 [12]
0	0x3c16d7a0	0.009206682
1	0xbdecd138	-0.11563343
2	0xbc917892	-0.017757688
3	0x3de69428	0.11258727
4	0xbdfaf34c	-0.122534364
5	0x3d1d0cab	0.03834216
6	0x3d6b8c58	0.05750689
7	0x3c749fe7	0.014930702
8	0x3de1595a	0.110033706
9	0xbd97a8d4	-0.07405248
10	0x3d94aa0a	0.07258995
11	0x3da8dc23	0.08245113

encoder.blocks.0.attention.heads.0.value.weight f4 [12, 48]
0	0x3e5ddcad	0.21666212
1	0x3e36d519	0.17854728
2	0x3ca21d02	0.019789223
3	0xbdd65c06	-0.10466771
4	0x3e68e569	0.22743763
5	0x392a1c78	0.00016223069
6	0xbb590b38	-0.003311826
7	0xbe020c5f	-0.12700032
8	0xbd98c661	-0.07459713
9	0xbe1929d8	-0.14957368
10	0x3cecf9d9	0.02892773
11	0xbe48641e	-0.19569442
12	0xbe6dd1d8	-0.2322458
13	0x3d708df4	0.058729127
14	0x3d5dcf66	0.05415287
15	0xbd3fc548	-0.046819
16	0xbd0f2827	-0.0349504
17	0x3daa9d7e	0.083308205
18	0xbdee2d95	-0.11629788
19	0x3a3ef0c8	0.0007283804
20	0x3ce780ea	0.028259713
21	0xbc223068	-0.009899236
22	0x3e23611c	0.15955013
23	0xbe88c845	-0.26715294
24	0xbca35516	-0.019938033
25	0x3dbf3dba	0.09337945
26	0xbc9b4156	-0.018952053
27	0x3db97728	0.090559304
28	0x3c294e60	0.010333627
29	0x3db90d84	0.09035781
30	0x3e5802db	0.2109484
31	0x3d0eb634	0.03484173
32	0x3c57c271	0.013168917
33	0x3d5a5fd3	0.05331404
34	0xbde0a5eb	-0.10969146
35	0x3ce99252	0.028512154
36	0xbdb4aa8f	-0.08821594
37	0xbd09d150	-0.03364688
38	0x3d4e6b94	0.050395563
39	0xbc46b057	-0.012127004
40	0x3dc34b80	0.09535885
41	0xbe25ac40	-0.1617899
42	0x3e16467a	0.14675322
43	0xbdff3d82	-0.124629036
44	0x3cb5a22e	0.02217206
45	0x3d91a0a2	0.071107164
46	0x3d264d0a	0.040600814
47	0x3e48eb36	0.19620976
48	0x3d72ba77	0.059259858
49	0x3cb5afe2	0.022178594
50	0xbc5913d1	-0.0132493535
51	0xbdc38c51	-0.095482476
52	0x3b4abe31	0.0030936117
53	0xbd47d6de	-0.048788898
54	0x3d4ba47e	0.04971742
55	0xbe361ce7	-0.17784463
56	0x3ba76bbc	0.0051092785
57	0x3da6e737	0.081495695
58	0xbdf9c45f	-0.12195658
59	0x3d5498ae	0.05190342
60	0xbe07620b	-0.13220994
61	0x3c162e8e	0.009166373
62	0x3da69972	0.08134736
63	0xbdee4f4b	-0.11636218
64	0x3c5124a8	0.012765087
65	0x3d80a643	0.06281712
66	0xbd1fe04b	-0.03903226
67	0x3cd5e98d	0.026112342
68	0x3c268380	0.010163188
69	0x3d493736	0.04912492
70	0x3cd9ad10	0.02657178
71	0xbdb0f026	-0.08639555
72	0xbc858b89	-0.016301887
73	0x3e23f8fa	0.16012946
74	0x3bae8728	0.0053261705
75	0x3de398f2	0.111131564
76	0xbde10e8f	-0.10989105
77	0xbd83d0c3	-0.064363025
78	0x3d4cde66	0.050016783
79	0xbd9e0b78	-0.07717031
80	0x3dbbc85a	0.091690734
81	0xbd3826f7	-0.044959035
82	0x3df88378	0.12134451
83	0xba58413a	-0.00082494656
84	0x3d83153e	0.06400536
85	0x3dddda85	0.10832695
86	0x3d7448d8	0.05963978
87	0x3d8f7ce5	0.070062436
88	0xbd5bedb8	-0.053693503
89	0x3d3390b5	0.043839175
90	0x3d6ae0f1	0.057343427
91	0x3d1b8e54	0.03797753
92	0x3b518960	0.003197275
93	0xbd04919e	-0.032365434
94	0x3c4f5b5a	0.012656057
95	0xbde23fa6	-0.11047296
96	0xbb960cf0	-0.004579179
97	0xbdbbb660	-0.09165645
98	0xbdb05879	-0.08610625
99	0x3e24b672	0.16085222
100	0xbe7fafb4	-0.24969369
101	0x3e5a342a	0.21308962
102	0xbe30d3f5	-0.17268355
103	0x3c36d3ff	0.011158942
104	0xbd548399	-0.051883314
105	0xbcf16d8a	-0.029471178
106	0xbcf2061b	-0.029543927
107	0x3c9f432d	0.019441212
108	0x3e473b61	0.19456245
109	0x3da7946e	0.081826076
110	0x3d841c7f	0.06450748
111	0x3dcfea4f	0.10152113
112	0xbdcb680c	-0.09931955
113	0xbd78aeb3	-0.06071348
114	0xbc7c4147	-0.015396423
115	0xbdeb1ffd	-0.11480711
116	0x3d5944cd	0.05304413
117	0x3d26aab5	0.040690143
118	0xbe202876	-0.15640435
119	0x3d5e9e68	0.054350287
120	0xbc1d6518	-0.009606622
121	0xbeac63cc	-0.3366989
122	0x3d31940f	0.04335409
123	0x3e2373d6	0.15962157
124	0x3d5b7c4a	0.05358533
125	0xbc8352e2	-0.016030733
126	0xbd1b13a9	-0.037860546
127	0x3c6cc418	0.014451049
128	0x3df7d275	0.12100688
129	0xbc075907	-0.008260972
130	0xbd83a885	-0.06428627
131	0xbce227b3	-0.02760682
132	0x3d3a2e19	0.04545412
133	0x3a7a89fc	0.00095573044
134	0xbcdb3287	-0.026757492
135	0x3e0eae82	0.13933757
136	0x3d3aca79	0.04560325
137	0x3eb9029d	0.36134806
138	0xbe5990bf	-0.21246623
139	0x3d225755	0.039634068
140	0x3ad2f364	0.0016094265
141	0x3d8da973	0.069170855
142	0xbe7258e3	-0.2366672
143	0x3dd999c9	0.10625035
144	0x3eabc222	0.3354655
145	0x3e2b5907	0.1673318
146	0xbda9daa5	-0.08293656
147	0x3b9128e0	0.0044299215
148	0x3e80c305	0.25148788
149	0xbc82b3b7	-0.015954835
150	0xbe0739a0	-0.13205576
151	0xbe5dc95a	-0.21658841
152	0x3d3581ce	0.044313245
153	0xbe21a372	-0.15785006
154	0x3e2c8b28	0.16849959
155	0xbe5c65ba	-0.2152318
156	0xbede1fb9	-0.43383577
157	0xbdc56b67	-0.09639626
158	0x3d94a10a	0.07257278
159	0xbc5e2ea8	-0.013560928
160	0xbccf2dc0	-0.02529037
161	0x3e011494	0.12605506
162	0xbcbe4d78	-0.0232303
163	0xbd24dcb6	-0.04024955
164	0xbdd6e552	-0.10492958
165	0xbe190f25	-0.14947183
166	0x3e2bd3b1	0.16779973
167	0xbef8c23f	-0.48585698
168	0xbd192f90	-0.037398875
169	0x3ed79deb	0.4211267
170	0xbc20a59b	-0.009805108
171	0x3e19fdb3	0.15038185
172	0xbc5979ab	-0.013273637
173	0x3daba984	0.08381942
174	0x3ebf55dd	0.37370196
175	0xbd2f0345	-0.042727727
176	0x3e4e6e3b	0.20159237
177	0x3e49d751	0.19711043
178	0xbdfe8817	-0.12428301
179	0x3da0b87c	0.078476876
180	0xbe932afa	-0.28743726
181	0xbe039064	-0.1284805
182	0x3df696ee	0.12040506
183	0xbcd9f4ed	-0.026606048
184	0x3da54181	0.080691345
185	0xbed8af6b	-0.42321333
186	0x3e906976	0.2820546
187	0xbd613b40	-0.054988146
188	0x3e802532	0.25028378
189	0x3c85bd19	0.01632552
190	0x3e6be7cd	0.23037644
191	0x3e2a795c	0.16647857
192	0xbdc755a1	-0.09733129
193	0xbd67be7a	-0.056578137
194	0x3da6c6e6	0.081434056
195	0x3a1796ca	0.0005782662
196	0xbedbbd11	-0.42917684
197	0xbdb94754	-0.09046808
198	0x3dbd5f81	0.092467315
199	0x3ef058ec	0.46942842
200	0x3da045a7	0.07825785
201	0x3df33f24	0.118772775
202	0xbdc56008	-0.09637457
203	0x3eb08fdf	0.34484765
204	0x3f17cae0	0.5929394
205	0x3e85ac09	0.26107815
206	0xbd136832	-0.03598804
207	0xbdf54b5f	-0.119772665
208	0xbda166fb	-0.0788097
209	0xbdde41c0	-0.108523846
210	0xbdc4016a	-0.09570582
211	0xbd9f7609	-0.07786185
212	0xbd19b0f4	-0.03752227
213	0x3e85ae2f	0.26109454
214	0xbedfc5cd	-0.43705598
215	0x3f0cac3c	0.5495031
216	0xbdb20bc6	-0.08693652
217	0xbeb4c38c	-0.3530544
218	0xbe2c34d8	-0.16817033
219	0xbe5be36e	-0.21473476
220	0x3e55f36e	0.20893642
221	0xbcc61fbb	-0.024185052
222	0xbe8dae29	-0.27671936
223	0x3dfcb43e	0.12339066
224	0xbe2a0dea	-0.1660687
225	0xbe973820	-0.29535007
226	0x3e983be5	0.29733196
227	0xbe1cfd29	-0.15330948
228	0x3e726f65	0.23675306
229	0x3accce4c	0.0015625446
230	0xbe81ce21	-0.25352576
231	0xbdbf3055	-0.093353905
232	0xbd408d0e	-0.04700952
233	0x3e9cf6b4	0.3065697
234	0xbf2c31b1	-0.67263323
235	0x3dbd5be1	0.0924604
236	0xbebee950	-0.37287378
237	0xbdbf6b64	-0.09346655
238	0xbe11a86b	-0.14224403
239	0xbe7b0f10	-0.24517465
240	0xbea607dc	-0.3242787
241	0x3d18d0bd	0.037308443
242	0x3dfc79b5	0.12327901
243	0x3e0e00a9	0.1386744
244	0xbe762591	-0.24037768
245	0x3dc1526d	0.094395496
246	0xbd9936ac	-0.07481131
247	0x3e33e6ea	0.17568555
248	0x3d2dd177	0.04243609
249	0xbbd4d002	-0.006494523
250	0xbdfca4c2	-0.123361126
251	0x3e852ee9	0.26012352
252	0x3eda0abb	0.42586312
253	0x3dfdcc8e	0.12392531
254	0xbd30e588	-0.043187648
255	0xbd84ff8b	-0.064940535

encoder.blocks.0.attention.heads.0.value.bias f4 [12]
0	0x3d44a637	0.048010077
1	0x3c7126db	0.0147187365
2	0xbd2517b4	-0.04030581
3	0xbd80dda4	-0.062922746
4	0xbdf79c8b	-0.12090405
5	0xbe12a84e	-0.14322016
6	0x3d9f9475	0.07791988
7	0x3cf60f4f	0.030036597
8	0xbe54bd7a	-0.20775405
9	0xbce93538	-0.02846776
10	0x3dab62fa	0.08368488
11	0x3d20d768	0.039267927

encoder.blocks.0.attention.heads.1.query.weight f4 [12, 48]
0	0xbdb5c449	-0.08875329
1	0x3d24f1ae	0.040269546
2	0xbd70641d	-0.058689225
3	0x3d44349c	0.047901735
4	0x3d0a7c47	0.033809926
5	0xbd07706b	-0.033066195
6	0xbcdd09db	-0.026982239
7	0x3c22247c	0.009896394
8	0xbe797188	-0.24359715
9	0x3dc994e3	0.09842851
10	0xbdd747ef	-0.10511767
11	0x3de64cdc	0.112451285
12	0x3cd8d99c	0.026470952
13	0x3dab7bbd	0.083732106
14	0xbc6038d8	-0.013685428
15	0xbdac857f	-0.084239
16	0x3ce425a3	0.027849978
17	0xbd047162	-0.032334693
18	0x3d8879b1	0.06663836
19	0x3d17e0b3	0.037079524
20	0xbdb24be8	-0.08705884
21	0xbd2b25d9	-0.04178414
22	0xbd3b4605	-0.045721073
23	0x3d6141f8	0.054994553
24	0x3d9aff9a	0.075682834
25	0x3d8c97f3	0.068649195
26	0x3d5b5b1e	0.053553693
27	0x3cf511eb	0.02991577
28	0xbd99701e	-0.07492088
29	0xbd390189	-0.04516748
30	0x3df16b33	0.11788025
31	0xbd867243	-0.065647624
32	0x3d85ef51	0.065397866
33	0xbd57c49c	-0.052677736
34	0xbd67bca0	-0.05657637
35	0xbc3ad556	-0.011403402
36	0xbe1d13e4	-0.15339619
37	0xbd499c65	-0.049221415
38	0x3dac7b47	0.08421951
39	0x3d291a05	0.04128458
40	0x3cd91a8e	0.02650192
41	0xbda2ae89	-0.07943446
42	0xbcd05d99	-0.025435256
43	0x3db3b1cf	0.08774149
44	0x3d53b681	0.05168772
45	0x3e0a64c8	0.13515007
46	0x3ca47fc0	0.020080447
47	0x3d813ef8	0.063108385
48	0xbd5f93a4	-0.05458416
49	0x3d55fdcd	0.052243996
50	0xbc3901f0	-0.011291966
51	0xbc211d91	-0.009833709
52	0xbcf0aa84	-0.029378183
53	0xbd11d39c	-0.035602197
54	0x3eb1d756	0.347346
55	0x3c27619f	0.010216146
56	0x3e0113ad	0.12605162
57	0xbc6ca6ba	-0.014444048
58	0x3c5a8708	0.013337858
59	0x3d4de544	0.050267473
60	0x3d03f87c	0.032219395
61	0xbba4afd2	-0.005025842
62	0xbd5c52ca	-0.05378989
63	0xbdf12364	-0.11774328
64	0x3c775959	0.015096986
65	0x3dbebcae	0.093133315
66	0xbd820af1	-0.06349743
67	0xbceb3874	-0.028713442
68	0x3cd4191e	0.025890883
69	0x3da955ee	0.08268343
70	0x3d8831d2	0.066501275
71	0xbc20c7ea	-0.009813288
72	0x3b7d6dec	0.0038670255
73	0x3d68b38f	0.056811865
74	0xbcda418b	-0.026642581
75	0xbe1627bb	-0.14663593
76	0x3cb29ec2	0.021804217
77	0x3c327c59	0.010893905
78	0x3cda144a	0.026621003
79	0x3daa1145	0.08304075
80	0x3db2cc17	0.08730333
81	0x3b937a27	0.0045006457
82	0xbc6bd375	-0.014393677
83	0x3dee5f0d	0.11639223
84	0xbd1b902f	-0.0379793
85	0xbd62eeab	-0.055403393
86	0xbd2b5607	-0.04183009
87	0xbd74ecc8	-0.059796125
88	0xbc5ea5e6	-0.013589358
89	0x3c4e6b86	0.012598878
90	0xbd3e3c8a	-0.046444453
91	0x3d05913c	0.03260921
92	0xbc60afee	-0.01371382
93	0xbdc71ec7	-0.09722667
94	0xbdae880a	-0.08522041
95	0x3cd778ee	0.026302781
96	0xbd5bc97d	-0.05365895
97	0x3ac16959	0.0014756127
98	0x3e6d69ab	0.2318484
99	0xbd8fa06a	-0.070130184
100	0x3d0712c0	0.032976866
101	0xbcba5613	-0.022746122
102	0x3def2cdc	0.11678478
103	0x3d174a34	0.036936
104	0xbe98f243	-0.2987233
105	0xbd670614	-0.05640228
106	0x3dbe88ab	0.09303411
107	0x3ea6a38a	0.32546645
108	0x3e1eb591	0.1549895
109	0x3d0ca7e2	0.034339793
110	0xbbaa25ed	-0.0051925094
111	0x3c3c7c8e	0.0115043055
112	0xbdb008a3	-0.08595397
113	0x3d6da76c	0.058020994
114	0x39735298	0.00023205054
115	0x3c991066	0.018684577
116	0x3ce80d78	0.028326735
117	0x3d5e39d8	0.054254383
118	0xbd06d813	-0.03292091
119	0xbcb29f61	-0.021804513
120	0x3d748ca8	0.059704453
121	0x3d9c88ce	0.07643281
122	0x3be74cde	0.007058724
123	0xbe81056e	-0.25199455
124	0x3e26ddde	0.16295573
125	0x3c2d01fe	0.010559557
126	0x3d609a09	0.0548344
127	0x3e31ab33	0.17350464
128	0xbdb921f4	-0.09039679
129	0xbd0effb3	-0.034911823
130	0xbd7885cd	-0.060674477
131	0x3c9d60f1	0.019211264
132	0xbe16743d	-0.14692779
133	0x3e01aa92	0.12662724
134	0x3d91bbbf	0.07115888
135	0xbdef404d	-0.11682186
136	0xbcdf6f18	-0.027274653
137	0x3e8d6065	0.27612606
138	0xbdd55b79	-0.10417838
139	0xbdbf1240	-0.09329653
140	0xbd545f44	-0.051848665
141	0xbe194f75	-0.14971717
142	0xbd00752f	-0.031361755
143	0x3cd65b9f	0.026166735
144	0x3dd56f94	0.104216725
145	0x3ad81a36	0.0016487304
146	0x3cdc8f25	0.026923725
147	0x3b8ab658	0.004233163
148	0xbd3a766b	-0.04552309
149	0xbd58c2df	-0.05292022
150	0x3ce3978f	0.02778223
151	0xbcf7d11c	-0.030251078
152	0x3e28132e	0.16413566
153	0xbdfa327e	-0.12216662
154	0x3e0caa8d	0.13736935
155	0x3d1c8244	0.03821017
156	0x3b0e0390	0.0021669604
157	0x3da57653	0.08079209
158	0xbd33a19d	-0.0438553
159	0xbc8afcd4	-0.016966261
160	0xbb8179d5	-0.003951291
161	0xbda94609	-0.08265311
162	0x3ce928eb	0.028461894
163	0xbd5de1a2	-0.05417026
164	0xbdab4719	-0.0836317
165	0x3c4d3a00	0.012526035
166	0xbda4b1f1	-0.08041752
167	0xbd78e65e	-0.06076657
168	0xbd15f96a	-0.036614813
169	0xbd022e07	-0.031782176
170	0xbc0aedd7	-0.008479557
171	0xbe77e366	-0.2420784
172	0xbd6f87d9	-0.058479164
173	0x3d637aef	0.05553716
174	0x3bbd2ba6	0.0057730256
175	0x3d89a2a2	0.06720473
176	0xbc280bd6	-0.010256728
177	0x3e5f57be	0.21810815
178	0x3d835626	0.06412916
179	0xbd0c6673	-0.03427739
180	0x3dad3af4	0.0845851
181	0xbcf2c6ce	-0.029635813
182	0xbe4568bc	-0.19278234
183	0xbe61c838	-0.22049034
184	0xbc6a41d4	-0.014297921
185	0x3ec5958c	0.38590658
186	0x3d4a2b31	0.049357597
187	0x3dd0b348	0.10190445
188	0xbe0dc21a	-0.13843575
189	0xbea2cf6b	-0.31798872
190	0xbd9e8190	-0.07739556
191	0xbd059b94	-0.032619074
192	0x3e53f560	0.20699072
193	0x3dcd6090	0.100281835
194	0xbe3696f6	-0.17831025
195	0xbdf48a8f	-0.119404905
196	0xbf1be4ce	-0.60896003
197	0xbec3e706	-0.38262194
198	0x3e1e30e4	0.15448338
199	0x3ef9b8ee	0.48773903
200	0x3e15e3e3	0.14637713
201	0xbeb71bf8	-0.35763526
202	0x3d191b8a	0.03737978
203	0xbe3f4820	-0.18679857
204	0xbe51a7ea	-0.2047421
205	0xbd196319	-0.037448023
206	0x3df55286	0.11978631
207	0x3dcfc2f9	0.1014461
208	0xbd92fcdb	-0.071771346
209	0xbe86b07a	-0.26306516
210	0xbee245b8	-0.44193816
211	0x3c7d409c	0.015457299
212	0xbdcc9aab	-0.09990438
213	0x3f02f33b	0.5115239
214	0xbf08de1f	-0.5346393
215	0xbef4e464	-0.47830498
216	0x3e164ebe	0.14678475
217	0x3d15b117	0.03654584
218	0xbc0b8ae8	-0.008517005
219	0x3e113e4c	0.1418392
220	0x3e87edc4	0.26548588
221	0x3de6056d	0.11231504
222	0x3e9f8be2	0.3116141
223	0x3d8d100c	0.06887826
224	0x3e09f225	0.13471277
225	0xbebe19b4	-0.37128985
226	0x3e8c985e	0.27459997
227	0x3ddcbbfe	0.10778044
228	0x3ee402e9	0.4453347
229	0xbe737d03	-0.23778157
230	0xbd8f01d0	-0.069827676
231	0x3e89b022	0.2689219
232	0xbcfcae82	-0.03084493
233	0x3e3227c8	0.17397988
234	0xbe7d3988	-0.24728978
235	0xbd002ba6	-0.031291626
236	0x3e6e53af	0.2327411
237	0x3e318a07	0.1733781
238	0x3e5dd842	0.21664527
239	0x3ea110e6	0.31458205
240	0xbc6691ca	-0.014072845
241	0xbd4978e7	-0.049187567
242	0xbdf69198	-0.120394886
243	0x3d4d0068	0.050049216
244	0x3ceea99e	0.029133614
245	0xbd1750b4	-0.0369422
246	0xbd29be2a	-0.04144112
247	0x3d840cd7	0.064477615
248	0x3e442ca3	0.19157653
249	0x3d8c2a5a	0.068440154
250	0x3d6c164e	0.05763846
251	0x3d047ad6	0.032343708
252	0xbdd28ff2	-0.10281362
253	0x3d880fd9	0.06643648
254	0x3d4cf829	0.05004135
255	0x3d2f4829	0.042793427

encoder.blocks.0.attention.heads.1.query.bias f4 [12]
0	0x3df16205	0.11786274
1	0xbd21839a	-0.039432146
2	0xbcf2c33d	-0.029634112
3	0xbd2c66ca	-0.042090215
4	0x3ed630e9	0.4183419
5	0xbcd4a25d	-0.025956327
6	0xbcb633bc	-0.022241466
7	0x3d9a6069	0.0753792
8	0xbd0428e7	-0.03226557
9	0xbad16355	-0.0015975038
10	0x3d65b5cd	0.05608158
11	0xbd695981	-0.056970123
